…
    Downloading mrms_means.npy: 0%|          | 0.00/132 [00:00<?, ?B/s]    Downloading mrms_means.npy: 100%|██████████| 132/132 [00:00<00:00, 682B/s]    Downloading mrms_means.npy: 100%|██████████| 132/132 [00:00<00:00, 679B/s]
    Downloading mrms_stds.npy: 0%|          | 0.00/132 [00:00<?, ?B/s]    Downloading mrms_stds.npy: 100%|██████████| 132/132 [00:00<00:00, 582B/s]    Downloading mrms_stds.npy: 100%|██████████| 132/132 [00:00<00:00, 578B/s]

    StormScopeMRMS(
      (stage_models): ModuleList(
        (0-1): 2 x EDMPrecond(
          (model): DropInDiT(
            (pnm): DiT(
              (tokenizer): PatchEmbed2DTokenizer(
                (x_embedder): PatchEmbed2D(
                  (pad): ZeroPad2d((0, 0, 0, 0))
                  (proj): Conv2d(14, 768, kernel_size=(4, 4), stride=(4, 4))
                )
              )
              (conditioning_embedder): DiTConditionEmbedder(
                (t_embedder): PositionalEmbedding(
                  (mlp): Sequential(
                    (0): Linear(in_features=256, out_features=768, bias=True)
                    (1): SiLU()
                    (2): Linear(in_features=768, out_features=768, bias=True)
                  )
                )
              )
              (detokenizer): ProjReshape2DDetokenizer(
                (proj_layer): ProjLayer(
                  (proj_layer_norm): LayerNorm((768,), eps=1e-06, elementwise_affine=False)
                  (output_projection): Linear(in_features=768, out_features=16, bias=True)
                  (adaptive_modulation): Sequential(
                    (0): SiLU()
                    (1): Linear(in_features=768, out_features=1536, bias=True)
                  )
                )
              )
              (blocks): ModuleList(
                (0-15): 16 x DiTBlock(
                  (attention): Natten2DSelfAttention(
                    (qkv): Linear(in_features=768, out_features=2304, bias=True)
                    (q_norm): Identity()
                    (k_norm): Identity()
                    (proj): Linear(in_features=768, out_features=768, bias=True)
                    (attn_drop): Dropout(p=0.0, inplace=False)
                    (proj_drop): Dropout(p=0.0, inplace=False)
                  )
                  (pre_attention_norm): LayerNorm((768,), eps=1e-06, elementwise_affine=False)
                  (pre_mlp_norm): LayerNorm((768,), eps=1e-06, elementwise_affine=False)
                  (linear): Mlp(
                    (layers): Sequential(
                      (0): Linear(in_features=768, out_features=3072, bias=True)
                      (1): GELU(approximate='tanh')
                      (2): Linear(in_features=3072, out_features=768, bias=True)
                    )
                  )
                  (adaptive_modulation): Sequential(
                    (0): SiLU()
                    (1): Linear(in_features=768, out_features=4608, bias=True)
                  )
                  (drop_path): DropPath(drop_prob=0.000)
                )
              )
            )
          )
        )
      )
    )



.. GENERATED FROM PYTHON SOURCE LINES 118-125

Setup GOES Data Source and Interpolators
----------------------------------------
We fetch GOES data for the model inputs and build interpolators that map the
…
